modelwithBatch.pth (torch, 409224 bytes, 4 tensors)

fc1.weight f4 [128, 784]
-0.022436462 0.0055512404 -0.020708263 0.028747998 -0.0028333666 0.02304994 -0.0011689749 -0.01844929
0.0066046077 -0.0152662955 -0.0058527635 -0.019680344 0.014068066 0.017470242 -0.0060030734 0.005896645
0.022077562 0.0034351351 0.0045344746 0.035428844 -0.016122516 0.0275 0.022961013 0.011570539
0.014532916 0.017440636 -0.030650157 0.027949627 0.027482813 0.01464318 -0.014029006 -0.034520745
-0.00015174651 -0.001724398 0.0232272 -0.0019330088 -0.010379718 0.025685923 0.017964281 0.007745169
-0.021004392 0.016380103 0.0046008206 -0.015858185 -0.012351066 0.03125351 -0.0160809 -0.0020139096
-0.021819817 -0.011468967 -0.014381265 -0.0070495396 -0.0053330576 -0.028193858 0.010304162 -0.028570406
-0.030626634 -0.029871013 -0.0010186943 0.0046878145 0.032364435 -0.030284608 -0.0013403994 0.026437886
-0.025629895 -0.013832646 -0.0337082 0.027423102 -0.0066831354 0.034430295 0.013684019 -0.031818148
-0.024925966 -0.03295245 0.014558751 0.02816699 -0.023428638 -0.0028195647 0.002687425 0.02458956
0.02157915 -0.004284511 0.007535786 -0.02329445 -0.009948765 0.023421744 0.029086158 -0.0110837035
0.006789916 0.02295244 -0.024819216 0.016317513 -0.018787475 -0.0024283014 0.009655845 -0.012647453
-0.010023974 -0.01455138 0.008875143 -0.016470732 0.031528454 0.010845319 0.017672835 0.018878663
-0.031798486 0.031129334 0.017679907 -0.0040368433 -0.01681274 0.0006395285 0.00041772367 0.023375507
0.017851064 0.014899795 0.009243535 -0.032455556 -0.0076222704 0.010564503 -0.019550957 -0.020014295
-0.03516623 0.014118101 -0.03509813 0.014292318 -0.018743275 0.022201557 0.0036496797 0.016382227
-0.034783576 0.0031087114 -0.018104035 -0.03503585 -0.024602253 -0.028529052 -0.02933755 -0.03604225
-0.03099742 0.033081863 0.034522377 0.017586395 0.0070487177 -0.01964882 -0.01598658 0.02816857
0.025536753 0.0077568665 0.023624675 -0.027767077 0.01634508 -0.015731301 -0.036912043 -0.010466407
-0.05633288 -0.0057717804 -0.011926733 -0.010485292 -0.0082952455 -0.05607921 -0.04634408 -0.0012540927
-0.0071619535 -0.01772812 -0.01619151 0.015160638 -0.021707378 -0.016981073 0.006102812 0.022818208
-0.008262541 0.00018775045 -0.011699575 -0.023282163 -0.0052790716 -0.0009576176 -0.0014027627 0.013593219
-0.02301917 -0.0049998746 -0.029961193 -0.007468796 -0.008738015 -0.0536708 -0.062696576 -0.0318323
-0.031062467 -0.05997972 -0.0229226 -0.04702395 -0.05529222 -0.043580107 -0.047151815 -0.036036137
-0.039949305 -0.027428929 0.025460059 0.018427227 0.0007878288 0.0112690795 -0.015630811 -0.0019521536
-0.01733614 -0.018202133 -0.010422938 -0.025855439 -0.017215014 -0.008720427 -0.03975171 -0.024410207
-0.0035952358 -0.05637387 -0.029620256 -0.037554383 -0.033367693 0.00459967 -0.00610609 0.012998584
-0.011161296 0.0012902478 0.0011865536 -0.036005426 -0.01354295 0.02152435 -0.0018322747 0.03449554
-0.020641744 0.0016547546 -0.0017040748 0.014734195 0.025959374 -0.023642125 -0.024067326 0.0032625936
0.037559483 0.0034573385 -0.031341255 -0.01043167 -0.012944542 0.008799165 0.014451276 -0.008488366
-0.015134073 0.024579808 -0.003205044 0.021543492 -0.041722644 0.014276135 0.0137564605 0.0071433573
-0.017844629 -0.0054429406 -0.010258562 -0.028010894 -0.023138989 -0.0035137646 -0.031439487 0.025274873
00000000: accc b7bc 2ee7 b53b 60a4 a9bc ec80 eb3c
00000010: 01b0 39bb 3ad3 bc3c 4a38 99ba f722 97bc
00000020: 776b d83b 7c1f 7abc 8ac8 bfbb ac38 a1bc
00000030: bf7d 663c c11d 8f3c 6eb5 c4bb a538 c13b
00000040: 01dc b43c 0120 613b ee95 943b d61d 113d
00000050: 5e13 84bc ae47 e13c bc18 bc3c 5c92 3d3c
00000060: 781b 6e3c aadf 8e3c 0a16 fbbc 9ef6 e43c
00000070: a323 e13c f3e9 6f3c ead9 65bc a065 0dbd
00000080: 251e 1fb9 3205 e2ba f846 be3c 035d fdba
00000090: b10f 2abc 496b d23c d429 933c 30cb fd3b
000000a0: 6711 acbc 912f 863c 7bc2 963b 06e9 81bc
000000b0: 205c 4abc ae03 003d 17bc 83bc ccfb 03bb
000000c0: 79bf b2bc 56e8 3bbc 669f 6bbc d3ff e6bb
000000d0: eec0 aebb cef6 e6bc cad2 283c 7c0c eabc
000000e0: b5e4 fabc 0eb4 f4bc b585 85ba 3d9c 993b
000000f0: 9290 043d 6d17 f8bc 57b0 afba 4494 d83c
00000100: c9f5 d1bc 53a2 62bc 9c11 0abd 6aa6 e03c
00000110: 34fe dabb c806 0d3d f032 603c bf53 02bd
00000120: 8a31 ccbc 26f9 06bd d487 6e3c 76be e63c
00000130: 6aed bfbc 72c8 38bb 821f 303b 0c70 c93c
00000140: c2c6 b03c 1565 8cbb c1ee f63b 01d4 bebc
00000150: 2500 23bc f5de bf3c 1846 ee3c 6c98 35bc
00000160: f27d de3b c106 bc3c ab51 cbbc 4eac 853c
00000170: 31e8 99bc 2324 1fbb 8d33 1e3c 4337 4fbc
00000180: 983b 24bc e968 6ebc 0c69 113c a1ed 86bc
00000190: fb23 013d 91b0 313c 9fc6 903c 6da7 9a3c
000001a0: 213f 02bd f202 ff3c 74d5 903c 7f47 84bb
000001b0: dfba 89bc 08a6 273a ec01 db39 fe7d bf3c
000001c0: 653c 923c 451e 743c 3272 173c 1ef0 04bd
000001d0: 3dc4 f9bb bd16 2d3c 5429 a0bc 05f5 a3bc
000001e0: 770a 10bd 9c4f 673c 0fc3 0fbd 542a 6a3c
000001f0: 7f8b 99bc 0ae0 b53c 772f 6f3b 0534 863c
00000200: 3979 0ebd 86bb 4b3b ea4e 94bc c081 0fbd
00000210: aa8a c9bc c2b5 e9bc 4d55 f0bc 0aa1 13bd
00000220: 4dee fdbc d980 073d 5667 0d3d 5811 903c
00000230: eef8 e63b 90f6 a0bc 4af6 82bc c6c1 e63c
00000240: 7432 d13c 502d fe3b 8988 c13c c877 e3bc
00000250: 1ee6 853c eede 80bc 1531 17bd 4b7b 2bbc
00000260: 4ebd 66bd 3421 bdbb 5868 43bc 81ca 2bbc
00000270: c8e8 07bc 50b3 65bd 4ad3 3dbd 5e60 a4ba
00000280: d2ae eabb 903a 91bc 0fa4 84bc 5364 783c
00000290: acd3 b1bc e41b 8bbc 19fa c73b 40ed ba3c
000002a0: 9c5f 07bc e1de 4439 93af 3fbc 3cba bebc
000002b0: 10fc acbb a108 7bba e8dc b7ba 18b6 5e3c
000002c0: b392 bcbc fdd5 a3bb 2d71 f5bc cdbc f4bb
000002d0: e429 0fbc ead5 5bbd 1067 80bd 9662 02bd
000002e0: b776 febc 4bad 75bd 2dc8 bbbc 2f9c 40bd
000002f0: 187a 62bd 0e81 32bd 4322 41bd a19a 13bd
00000300: e2a1 23bd a2b2 e0bc 9d91 d03c b2f4 963c
00000310: 4c86 4e3a f2a1 383c 300c 80bc 68df ffba
00000320: 8504 8ebc a41c 95bc f8c4 2abc c9ce d3bc
00000330: 8006 8dbc 1fe0 0ebc b0d2 22bd eaf7 c7bc
00000340: 0c9e 6bbb 49e8 66bd 2ea6 f2bc a0d2 19bd
00000350: 90ac 08bd d4b8 963b 9815 c8bb 03f8 543c
00000360: dedd 36bc 881d a93a 2286 9b3a 6d7a 13bd
00000370: 40e3 5dbc d553 b03c f028 f0ba 324b 0d3d
00000380: e018 a9bc 5ae4 d83a 435b dfba b167 713c
00000390: c1a8 d43c 21ad c1bc d728 c5bc 3dd1 553b
000003a0: f9d7 193d 8494 623b b05f 00bd 98e9 2abc
000003b0: 5815 54bc 5f2a 103c 0bc5 6c3c ca12 0bbc
000003c0: e7f4 77bc 985b c93c b70b 52bb fa7b b03c
000003d0: 5de5 2abd 73e6 693c c762 613c d312 ea3b
000003e0: e62e 92bc b25a b2bb 8713 28bc 1a77 e5bc
000003f0: fa8d bdbc 3047 66bb b1c6 00bd 400d cf3c

fc1.bias f4 [128]
0.040709827 0.027018374 -0.0038929265 -0.014194768 0.035026453 -0.004477267 0.019122498 -0.02483362
-0.021285022 0.008920834 -0.028714634 0.00482623 0.022274455 -0.0019276233 0.026025036 -0.033261277
0.011898332 0.031230753 0.027155865 -0.017376984 -0.01658161 0.0058839186 0.02838251 0.019713817
-0.028829863 0.033761714 0.019339174 -0.033107337 -0.0117577845 0.037877914 0.01076179 0.037272986
-0.016613213 0.00018532135 0.015251443 0.019589877 -0.0073372126 -0.013611934 -0.0047581648 -0.025552137
-0.0075518396 0.03213348 -0.018375907 -0.0249669 0.019635322 -0.03146407 0.00050072215 0.015333927
0.00837231 0.037019018 -0.0018405308 0.007975264 0.0028433902 -0.028357461 0.000362201 0.013173243
-0.006700243 -0.006418542 -0.004603058 0.0069043287 0.0052675125 -0.027636886 -0.007517828 -0.00081498816
0.01781289 -0.008534274 0.015221255 0.028483042 -0.0073579336 -0.015315746 -0.0054842434 0.0066600065
0.025764355 0.03104799 0.036069717 -0.018926809 0.018135687 -0.0056675887 -0.011345417 0.00050653715
0.021983247 0.0030885232 0.028857358 -0.003934698 0.013914249 -0.028627114 -0.03353039 0.017310137
0.023729667 0.012512734 0.0012267443 -0.011018895 0.02644706 -0.033465654 -0.0021880246 0.026089482
-0.0376969 0.02210073 0.05602532 0.023694424 0.020043327 0.019627402 0.034346595 -0.00786499
0.03316636 -0.016186435 -0.031970322 -0.018587869 -0.0069275466 -0.016413575 0.012554465 -0.010910137
0.0018567301 -0.009070909 -0.015994573 -0.0042773923 -0.012862413 -0.025246782 -0.0028540483 0.0017396008
-0.004631068 0.033444393 -0.023505352 0.0032135951 -0.016011994 0.023024587 -0.012487796 0.0382267
00000000: 59bf 263d a355 dd3c 7820 7fbb 2c91 68bc
00000010: e677 0f3d 0ab6 92bb c9a6 9c3c e06f cbbc
00000020: ed5d aebc b128 123c f43a ebbc 5a25 9e3b
00000030: eb78 b63c 4ea8 fcba 7532 d53c fa3c 08bd
00000040: 39f1 423c a3d7 ff3c fa75 de3c 2d5a 8ebc
00000050: 28d6 87bc e3cd c03b 7082 e83c df7e a13c
00000060: 9b2c ecbc b949 0a3d 306d 9e3c 8f9b 07bd
00000070: b9a3 40bc df25 1b3d 3852 303c 8fab 183d
00000080: 6f18 88bc d252 4239 30e1 793c f37a a03c
00000090: 006d f0bb 9704 5fbc 61ea 9bbb b752 d1bc
000000a0: 6c75 f7bb 659e 033d 1289 96bc 6287 ccbc
000000b0: 41da a03c 78e0 00bd e542 033a 273b 7b3c
000000c0: 032c 093c 41a1 173d f73d f1ba afaa 023c
000000d0: 2c58 3a3b e84d e8bc cce5 bd39 96d4 573c
000000e0: b68d dbbb a252 d2bb 40d5 96bb b53d e23b
000000f0: 199b ac3b c066 e2bc 1d58 f6bb eea4 55ba
00000100: 56ec 913c 57d3 0bbc 9262 793c 4555 e93c
00000110: d21a f1bb e5ee 7abc 2bb5 b3bb 2f3c da3b
00000120: c50f d33c 5b58 fe3c d7bd 133d 650c 9bbc
00000130: 4b91 943c 2eb7 b9bb 21e2 39bc 22c9 043a
00000140: 3616 b43c d268 4a3b 4466 ec3c a4ee 80bb
00000150: 97f8 633c 6983 eabc 2a57 09bd fdcd 8d3c
00000160: b864 c23c 3602 4d3c b5ca a03a 9888 34bc
00000170: 81a7 d83c 4813 09bd f664 0fbb 9cb9 d53c
00000180: 1168 1abd 970c b53c ce7a 653d cf1a c23c
00000190: e731 a43c a5c9 a03c 04af 0c3d 29dc 00bc
000001a0: 73d9 073d 6a99 84bc 50f3 02bd 9645 98bc
000001b0: 7900 e3bb c375 86bc 3eb1 4d3c 6ec0 32bc
000001c0: 865d f33a 269e 14bc 0d07 83bc 5e29 8cbb
000001d0: dfbc 52bc 57d2 cebc fc0a 3bbb 5103 e43a
000001e0: 37c0 97bb fdfc 083d 4c8e c0bc 2e9b 523b
000001f0: 962b 83bc 0f9e bc3c 9d99 4cbc 9a93 1c3d

fc2.weight f4 [10, 128]
-0.12979117 -0.2127474 0.20033215 -0.03413669 -0.11700898 -0.17099889 -0.10987918 0.15555823
0.15766414 -0.1423477 -0.010028737 0.11579601 -0.020721914 0.0010767182 -0.29443404 -0.21640497
0.20594706 0.15070885 -0.08876338 0.14186557 0.18107992 -0.15155256 -0.23836844 -0.13433756
-0.13191813 0.286997 0.2993123 0.08999647 0.077885136 -0.12159364 0.070561655 -0.25338
0.10313149 0.13595763 0.027341014 0.19640529 0.01729808 -0.08577892 -0.10198001 0.1402044
-0.057385553 0.023571886 -0.11678929 -0.053346958 -0.06823412 0.04983468 -0.15856068 -0.13235204
-0.15419167 0.16897997 -0.15703838 -0.24540316 0.097172424 -0.018554688 0.25559416 0.1668839
0.16235736 -0.088112704 0.12183883 0.10357867 0.14048815 -0.024079962 0.05596908 0.014699019
-0.021807028 -0.20647109 -0.13595401 0.05165588 0.06337125 -0.121885784 -0.08132337 0.18159296
-0.2282959 -0.0367465 0.048147865 0.05699006 -0.0033424904 -0.20533523 -0.16926594 -0.0065345773
-0.04381987 0.17806174 0.073860005 0.09598162 -0.13913819 0.034139335 0.2542475 0.10800848
-0.3231413 0.07499175 0.04266586 -0.15122676 -0.2421634 0.018159714 0.18767352 0.057693098
0.1313391 -0.22685333 -0.32992637 -0.22253267 -0.043579705 0.014854175 0.16075979 -0.24890041
0.09215952 -0.26692992 -0.07151335 -0.17954163 -0.10573073 0.15591663 0.27158386 0.106271766
0.27331012 -0.110500865 -0.079413675 -0.20284085 0.08604292 0.1494388 -0.2583255 -0.004270642
-0.109655194 -0.0828268 0.2442409 -0.2885321 0.24733593 0.027224183 0.026682008 -0.12616168
0.068819135 -0.10312134 -0.12185968 0.085603155 0.19163798 -0.037457306 -0.14607663 -0.16624002
0.085349225 0.17369188 -0.031091984 -0.22662848 0.1600931 0.07628716 0.13140571 -0.056436226
-0.16027574 -0.0068031857 0.31941092 -0.23307233 -0.056607753 -0.061397195 0.02260821 -0.03238185
0.06584847 0.03313035 -0.18289863 -0.17894305 0.22815847 0.10314515 -0.075284205 0.29633507
-0.23780814 -0.036332726 0.05393924 -0.3353364 0.15001659 -0.10963993 0.17087603 -0.22675985
0.15671003 -0.22252013 0.08442069 0.0287483 0.1950539 -0.16520381 0.016820118 -0.009589259
0.077223726 0.1275235 0.26594007 0.18750371 0.26186633 -0.28062704 -0.028762223 -0.28479558
-0.32444116 0.17719366 0.061680764 -0.008617362 -0.116241336 -0.03657782 0.09017813 0.07417892
-0.053847086 0.15406658 0.2138127 -0.05495404 0.014079857 -0.20666485 -0.23956811 0.110766895
0.13022774 0.09671381 0.14285614 0.08945487 0.081494905 -0.054368317 0.090474 -0.16215685
-0.010595512 -0.23347619 -0.047665462 -0.13240808 -0.21331903 -0.15902518 -0.1140668 0.18312958
0.19502068 0.13064045 0.057146706 0.20852736 0.3659182 0.049127657 -0.16093639 0.0154467495
-0.24292737 0.20629534 0.29149503 0.09435463 0.12581563 -0.047674432 0.130367 0.22078004
0.12745768 0.14189935 -0.122141 -0.10614382 -0.16467893 0.10082624 -0.25925493 -0.14689198
-0.2942363 0.015481968 0.16711673 -0.13361529 0.11995385 -0.07137128 0.096061386 0.1632402
0.027354296 0.23592393 -0.12011344 0.15408856 -0.21784937 0.07009153 -0.07398217 0.09731375
00000000: fae7 04be 74da 59be df23 4d3e ead2 0bbd
00000010: 67a2 efbd 551a 2fbe 5608 e1bd a84a 1f3e
00000020: b572 213e 98c3 11be 924f 24bc 7526 ed3d
00000030: 01c1 a9bc ab20 8d3a 0fc0 96be 4499 5dbe
00000040: c9e3 523e 6c53 1a3e 93c9 b5bd 3545 113e
00000050: 046d 393e 9830 1bbe db16 74be c98f 09be
00000060: 8c15 07be 45f1 923e 763f 993e 1250 b83d
00000070: 3e82 9f3d 1606 f9bd a182 903d 06bb 81be
00000080: 9a36 d33d 7a38 0b3e 43fa df3c 781e 493e
00000090: b4b4 8d3c dcac afbd e5da d0bd be91 0f3e
000000a0: 1d0d 6bbd d419 c13c 392f efbd 5782 5abd
000000b0: 55be 8bbd 731f 4c3d bb5d 22be 4b87 07be
000000c0: 6ce4 1dbe 1609 2d3e abce 20be f74a 7bbe
000000d0: 5602 c73d 0000 98bc 3ddd 823e 9de3 2a3e
000000e0: 0241 263e 6f74 b4bd a386 f93d 0e21 d43d
000000f0: 20dc 0f3e 5743 c5bc d63f 653d 27d4 703c
00000100: a7a4 b2bc 286d 53be 8737 0bbe 1e95 533d
00000110: c9c8 813d 419f f9bd de8c a6bd 81f3 393e
00000120: 67c6 69be 7f83 16bd b236 453d 696e 693d
00000130: af0d 5bbb 6643 52be 0d54 2dbe 0220 d6bb
00000140: 777c 33bd d155 363e ea43 973d 0392 c43d
00000150: 3e7a 0ebe b0d5 0b3d ba2c 823e 8d33 dd3d
00000160: c772 a5be 4695 993d 66c2 2e3d 30db 1abe
00000170: aff9 77be aec3 943c 7d2d 403e 994f 6c3d
00000180: c27d 063e 3d4c 68be 1cec a8be 9bdf 63be
00000190: a280 32bd ed5e 733c 379e 243e c0df 7ebe
000001a0: 21be bc3d 0aab 88be 9775 92bd c3d9 37be
000001b0: 5a89 d8bd 9ca8 1f3e 0a0d 8b3e 03a5 d93d
000001c0: 4eef 8b3e 474e e2bd a3a3 a2bd 83b5 4fbe
000001d0: 4537 b03d 7c06 193e 3d43 84be bef0 8bbb
000001e0: e792 e0bd 19a1 a9bd 491a 7a3e 7bba 93be
000001f0: a145 7d3e 4005 df3c 3a94 da3c 8730 01be
00000200: 0cf1 8c3d 4831 d3bd 9191 f9bd b550 af3d
00000210: bf3c 443e d56c 19bd 1d95 15be d33a 2abe
00000220: 93cb ae3d 49dc 313e 9eb4 febc 4c11 68be
00000230: 72ef 233e 713c 9c3d 388f 063e ac29 67bd
00000240: 531f 24be 42ed debb d489 a33e 83aa 6ebe
00000250: 88dd 67bd a07b 7bbd da34 b93c d5a2 04bd
00000260: 90db 863d b1b3 073d c749 3bbe d93c 37be
00000270: 60a2 693e c43d d33d 9b2e 9abd 3bb9 973e
00000280: fa83 73be a0d1 14bd 64ef 5c3d 36b1 abbe
00000290: f39d 193e e68a e0bd 20fa 2e3e bc33 68be
000002a0: 9878 203e 51dc 63be c1e4 ac3d 8e81 eb3c
000002b0: 36bc 473e 302b 29be 58ca 893c 441c 1dbc
000002c0: 7927 9e3d 8595 023e 4c29 883e f900 403e
000002d0: 5813 863e 59ae 8fbe c19e ebbc bad0 91be
000002e0: 271d a6be 4172 353e f8a4 7c3d d62f 0dbc
000002f0: f00f eebd a0d2 15bd 50af b83d 1eeb 973d
00000300: c38e 5cbd a1c3 1d3e b7f1 5a3e 7d17 61bd
00000310: 33af 663c f39f 53be 5851 75be c1d9 e23d
00000320: 6c5a 053e e411 c63d e148 123e 1d34 b73d
00000330: cde6 a63d 50b1 5ebd 6f4a b93d 720c 26be
00000340: cc98 2dbc 6214 6fbe dc3c 43bd fc95 07be
00000350: 4e70 5abe 7fd7 22be db9b e9bd 5286 3b3e
00000360: 80b3 473e 9cc6 053e aa12 6a3d 3288 553e
00000370: a159 bb3e 153a 493d 82cc 24be 5d14 7d3c
00000380: f4c1 78be 163f 533e d63e 953e 003d c13d
00000390: d0d5 003e 4446 43bd ed7e 053e 2a14 623e
000003a0: 4484 023e 104e 113e 1025 fabd ee61 d9bd
000003b0: 98a1 28be fd7d ce3d 10bd 84be da6a 16be
000003c0: 24a6 96be 15a8 7d3c a620 2b3e 72d2 08be
000003d0: 5daa f53d 1b2b 92bd d5bb c43d 7028 273e
000003e0: 1e16 e03c 0b96 713e 09fe f5bd 64c9 1d3e
000003f0: e813 5fbe 268c 8f3d f783 97bd 6e4c c73d

fc2.bias f4 [10]
-0.017414346 0.07744253 0.060811408 0.029828344 0.082855366 0.01820007 0.038753547 0.069767356
0.007571876 0.012551177
00000000: 88a8 8ebc 309a 9e3d 6215 793d 925a f43c
00000010: 13b0 a93d 5018 953c 0abc 1e3d 30e2 8e3d
00000020: 801d f83b 74a3 4d3c
